pretrained_models/AGCM.pth (torch, 152883 bytes, 38 tensors)

classifier.model.0.weight f4 [16, 3, 1, 1]
-0.0051296344 -0.069540426 -0.41151488 0.24464844 -0.8031149 0.0016969973 0.16389295 0.71476084
0.16115153 -0.14692466 0.18984365 -0.14513344 0.268174 0.13443616 0.2513 0.6277853
-0.4105853 0.027231304 0.43842447 -0.0139586385 -0.05318153 -0.54124403 -0.6942696 -0.45725554
-0.73084223 -0.9354815 -0.38437682 -0.4985993 -0.72180116 0.3771539 0.2564422 0.46138
0.76596403 0.13027358 0.35273305 -0.40077573 0.80280215 -0.21231827 0.65694046 0.15381229
0.4520576 0.52412236 -0.2417318 -0.3226709 0.2248522 -0.10475395 0.08170931 1.7035729
00000000: 7e16 a8bb 366b 8ebd 14b2 d2be 1f85 7a3e
00000010: f098 4dbf c86d de3a 8ed3 273e 91fa 363f
00000020: e804 253e 6b73 16be 6066 423e dc9d 14be
00000030: 1a4e 893e a2a9 093e 65aa 803e 8ab6 203f
00000040: 3d38 d2be 2f14 df3c 2c79 e03e c6b2 64bc
00000050: e0d4 59bd f88e 0abf a7bb 31bf 661d eabe
00000060: 7a18 3bbf b77b 6fbf 0acd c4be 6848 ffbe
00000070: f6c7 38bf 511a c13e 644c 833e 003a ec3e
00000080: 3816 443f 7066 053e 6d99 b43e 7a32 cdbe
00000090: 7184 4d3f f669 59be 402d 283f f880 1d3e
000000a0: 1874 e73e e22c 063f 8a88 77be 1f35 a5be
000000b0: a83f 663e 3d89 d6bd 3657 a73d ad0e da3f

classifier.model.0.bias f4 [16]
-1.3162545 -0.04783912 -0.529267 0.9223374 -0.54839957 0.4204952 -0.47850943 0.38919058
-0.12747338 -0.058239136 0.5325391 0.2424925 -0.40249595 -0.6752436 0.08878069 0.13849002
00000000: 077b a8bf f4f2 43bd 0b7e 07bf 4e1e 6c3f
00000010: ea63 0cbf 264b d73e 30ff f4be fd43 c73e
00000020: 6288 02be 298c 6ebd 7c54 083f f44f 783e
00000030: f313 cebe c4dc 2cbf a7d2 b53d 54d0 0d3e

classifier.model.3.weight f4 [16]
0.9291281 1.3047988 1.3372602 0.8606125 1.2024087 1.1721785 0.24194539 1.1178526
0.6220023 1.0852805 0.39280733 1.3909911 0.9745793 1.041011 0.9788798 1.1326319
00000000: 57db 6d3f a603 a73f 582b ab3f 1a51 5c3f
00000010: 87e8 993f f209 963f 88c0 773e cb15 8f3f
00000020: 8b3b 1f3f 79ea 8a3f 0b1e c93e ff0b b23f
00000030: 077e 793f d93f 853f de97 7a3f 15fa 903f

classifier.model.3.bias f4 [16]
0.070522696 -0.051765352 -0.02508245 -0.20991279 -0.09717451 -0.08201547 0.031177351 -0.053116873
-0.09859524 -0.092050396 -0.050845318 0.08649901 0.028804401 0.21097492 0.20123516 -0.012232887
00000000: 346e 903d e807 54bd b679 cdbc 61f3 56be
00000010: 6e03 c7bd baf7 a7bd a567 ff3c 1491 59bd
00000020: 4dec c9bd eb84 bcbd 2e43 50bd 6526 b13d
00000030: 35f7 eb3c cf09 583e 9710 4e3e 726c 48bc

classifier.model.4.weight f4 [32, 16, 1, 1]
0.25955155 0.19170009 0.20570713 0.0717082 -0.04350136 0.577887 0.21407619 -0.25032973
-0.14586061 0.12465383 -0.23524417 -0.26555339 -0.3045028 0.33911055 -0.2679608 -0.42512393
0.019892232 0.05122041 0.4489921 0.4193885 0.16835451 -0.39045623 -0.4090565 0.25389925
-0.28506508 -0.22955592 -0.10536936 0.5323309 0.025390556 -0.01906082 -0.22038192 -0.056264743
-0.16099435 0.03650089 -0.17009926 -0.25019467 0.11492962 0.5544404 0.34594923 0.35650015
-0.1560728 0.14411564 0.13586529 0.12622419 0.06524275 -0.30865848 0.2689513 0.21407382
0.23186396 -0.16447856 0.23088054 -0.017148985 -0.008233272 -0.5648699 -0.8278402 0.36511835
0.52465683 0.14533663 -0.48284754 -0.058861353 0.17168128 -0.021946568 -0.14743663 0.05255698
0.025260787 -0.20949839 -0.24794097 -0.06038866 0.08909623 0.05644749 -0.3419321 -0.4069701
0.19968411 0.35153982 -0.3385996 -0.33079737 -0.705655 0.1646751 0.05879314 -0.3328544
0.06479158 0.43958572 0.45840913 0.08490696 0.21712777 -0.39716247 -0.1721421 -0.06951404
-0.22360808 -0.06728772 0.0029397288 -0.34515685 0.27057126 0.13323887 0.23651755 -0.20999706
-0.17977735 -0.49415895 -0.13391542 0.045675613 -0.25145125 0.25847352 -0.13007951 -0.062102392
-0.38836715 0.1961853 0.29752102 0.2881747 0.29986137 -0.2163724 0.6954774 -0.35902992
0.21156245 -0.71257585 -0.12612042 0.042087715 0.028342621 0.121320456 0.40294978 0.25502884
0.11448781 -0.017858578 -0.13367689 0.099627696 0.3186616 0.43034062 0.47969478 -0.29772973
0.12122958 -0.47934374 0.11587983 -0.24289489 0.013770731 0.39999202 0.2910325 -0.5799726
-0.27240008 0.17901668 -0.06647477 0.22976615 -0.037589304 -0.22373204 0.45060012 -0.31828177
-0.27764457 0.39488488 0.47518936 -0.07184048 -0.5852136 0.2048231 -0.038631406 0.25152
0.232479 0.0090664495 -0.24490616 0.08134481 0.1272209 0.041433107 -0.35164383 0.2967609
-0.024157673 -0.16456583 0.049234327 0.2157564 0.17257564 0.43903905 -0.039543282 -0.5731225
0.1758425 -0.13124993 0.2308073 0.33088452 -0.070215285 -0.035776816 0.21211815 0.1155448
-0.48030594 0.43363288 0.12151989 0.000540896 -0.3228279 0.072152875 -0.0809481 0.1382976
0.030465884 -0.2022939 -0.25444254 -0.09641841 0.621755 0.12300381 -0.44738334 0.46963027
-0.25641218 0.56676525 -0.049611732 0.06087776 0.21066624 -0.24225682 0.08212121 -0.3844094
-0.32547158 -0.10369716 0.23900019 0.4104828 -0.3403082 -0.20404172 0.35271206 0.26263082
-0.29927465 0.11104855 0.07692673 -0.2582781 0.37396792 0.06535144 0.09389466 0.31400034
0.114671424 0.35180098 0.0641912 -0.61076313 0.37351787 0.24643254 0.30832395 -0.15775524
0.18893881 0.4643195 -0.042842794 -0.25728709 -0.27354878 -0.0694873 0.12116381 -0.13728873
0.027251842 -0.02618207 0.13339883 0.51080924 0.18375817 -0.3257943 0.19035986 -0.36649773
0.014833928 0.12742329 0.10420199 0.20496535 -0.38244998 -0.38953897 -0.05898664 -0.11919442
0.19478793 0.5677905 0.24046983 -0.21410866 0.37658897 0.077460065 0.14382719 0.44218722
00000000: f1e3 843e 074d 443e e4a4 523e c0db 923d
00000010: 7b2e 32bd 67f0 133f ca36 5b3e 382b 80be
00000020: 7c5c 15be 824a ff3d d9e3 70be 9df6 87be
00000030: cae7 9bbe e69f ad3e 2832 89be d8a9 d9be
00000040: 09f5 a23c 7ecc 513d 4be2 e53e 17ba d63e
00000050: 2065 2c3e e1e9 c7be db6f d1be 15ff 813e
00000060: 0df4 91be b510 6bbe e4cb d7bd d646 083f
00000070: dbff cf3c 7025 9cbc ccab 61be dc75 66bd
00000080: b4db 24be f581 153d 802e 2ebe 8419 80be
00000090: 3860 eb3d ceef 0d3f 4220 b13e 3087 b63e
000000a0: 8cd1 1fbe 0d93 133e 4520 0b3e ea40 013e
000000b0: fe9d 853d 7c08 9ebe fcb3 893e 2b36 5b3e
000000c0: bf6d 6d3e 116d 28be f36b 6c3e 077c 8cbc
000000d0: d8e4 06bc 509b 10bf 56ed 53bf cbf0 ba3e
000000e0: e94f 063f 20d3 143e cb37 f7be 9a18 71bd
000000f0: 38cd 2f3e 4ac9 b3bc a1f9 16be fd45 573d
00000100: b6ef ce3c bf86 56be 3de4 7dbe 195a 77bd
00000110: 1678 b63d 7c35 673d b911 afbe 635e d0be
00000120: fe79 4c3e 07fd b33e ed5c adbe 465e a9be
00000130: cea5 34bf 97a0 283e 13d1 703d e46b aabe
00000140: 73b1 843d 6111 e13e 9ab4 ea3e b3e3 ad3d
00000150: be56 5e3e e158 cbbe 0546 30be 615d 8ebd
00000160: 84f9 64be 25ce 89bd 77a8 403b 66b8 b0be
00000170: 5188 8a3e c56f 083e a831 723e 7809 57be
00000180: 8e17 38be 6702 fdbe 2021 09be 5a16 3b3d
00000190: 38be 80be a456 843e 9033 05be 145f 7ebd
000001a0: 0fd8 c6be cde4 483e ad54 983e a28b 933e
000001b0: 6e87 993e ba90 5dbe cf0a 323f c5d2 b7be
000001c0: d4a3 583e 5f6b 36bf b625 01be 2b64 2c3d
000001d0: c92e e83c dc76 f83d 6f4f ce3e 2493 823e
000001e0: 9678 ea3d 274c 92bc 98e2 08be 9b09 cc3d
000001f0: 9d27 a33e 9b55 dc3e 8e9a f53e 0870 98be
00000200: 3747 f83d 8b6c f5be 6852 ed3d 70b9 78be
00000210: a29e 613c c1cb cc3e 3602 953e 1679 14bf
00000220: 0678 8bbe 2650 373e ed23 88bd d147 6b3e
00000230: 3ef7 19bd 031a 65be 0fb5 e63e d4f5 a2be
00000240: 6e27 8ebe 5a2e ca3e 054c f33e 1a21 93bd
00000250: 8fd0 15bf 26bd 513e f73b 1ebd 3bc7 803e
00000260: fa0e 6e3e 728b 143c aec8 7abe 1c98 a63d
00000270: 3246 023e c3b5 293d a90a b4be 0bf1 973e
00000280: 50e6 c5bc f283 28be efa9 493d 3fef 5c3e
00000290: abb7 303e bac9 e03e 23f8 21bd 28b8 12bf
000002a0: 0e10 343e 6266 06be c058 6c3e b269 a93e
000002b0: 08cd 8fbd b68a 12bd 8035 593e c1a2 ec3d
000002c0: a9ea f5be 2105 de3e 6cdf f83d ebca 0d3a
000002d0: b349 a5be e3c4 933d 1ec8 a5bd e39d 0d3e
000002e0: 9793 f93c 2226 4fbe 4b46 82be 0477 c5bd
000002f0: 562b 1f3f 6ce9 fb3d 6e0f e5be 6173 f03e
00000300: 7548 83be 8717 113f ac35 4bbd f55a 793d
00000310: e4b8 573e 2c12 78be 2a2f a83d 4fd1 c4be
00000320: 36a4 a6be 2d5f d4bd 77bc 743e cd2a d23e
00000330: e03c aebe 50f0 50be ad96 b43e 8c77 863e
00000340: 873a 99be 6c6d e33d c38b 9d3d 073d 84be
00000350: b978 bf3e fad6 853d d84b c03d a7c4 a03e
00000360: dad8 ea3d 421f b43e ad76 833d f95a 1cbf
00000370: bc3d bf3e d058 7c3e a3dc 9d3e 978a 21be
00000380: 2d79 413e 49bb ed3e ed7b 2fbd 22bb 83be
00000390: 960e 8cbe 5c4f 8ebd bb24 f83d 6b95 0cbe
000003a0: 413f df3c c87b d6bc b499 083e 65c4 023f
000003b0: 1a2b 3c3e 83ce a6be b2ed 423e 97a5 bbbe
000003c0: 010a 733c 407b 023e da67 d53d 70e2 513e
000003d0: 7cd0 c3be a771 c7be fa9b 71bd 341c f4bd
000003e0: 7d76 473e b85a 113f b93d 763e 4d3f 5bbe
000003f0: 45d0 c03e 62a3 9e3d 6f47 133e 5d66 e23e

classifier.model.4.bias f4 [32]
0.4009099 -0.5479182 -0.83538544 -0.053945385 -0.26122436 0.016682606 0.33633238 -0.36579245
0.19975041 -0.06599665 -0.22326289 -0.50209165 0.21261449 0.5147734 -0.26536137 -0.5495541
0.19395418 -0.685823 -0.17665651 -0.094049245 -0.015631236 0.08813607 -0.34800768 0.28006628
-0.3868074 0.7497543 -0.089956336 0.15051633 -0.1101328 -0.88975906 -0.4374476 -0.57799435
00000000: 1044 cd3e 5e44 0cbf d2db 55bf d6f5 5cbd
00000010: 33bf 85be f6a9 883c c233 ac3e 2649 bbbe
00000020: 5f8b 4c3e 4029 87bd 079f 64be 1489 00bf
00000030: 9db7 593e 31c8 033f 72dd 87be 94af 0cbf
00000040: ed9b 463e 1992 2fbf 72e5 34be e49c c0bd
00000050: 140d 80bc af80 b43d 102e b2be d964 8f3e
00000060: 9f0b c6be e6ef 3f3f 073b b8bd f420 1a3e
00000070: 4e8d e1bd 40c7 63bf 22f9 dfbe 70f7 13bf

classifier.model.7.weight f4 [32]
1.0790769 1.1282824 1.0879915 1.1154917 1.0422208 0.54127187 1.1009595 0.51430696
0.80783784 0.9869699 0.93511534 0.6843724 1.11345 1.2610866 1.2403435 1.075756
1.2735047 1.0450904 0.7960996 1.2440503 0.8251942 1.115901 1.124977 0.45346755
0.854035 1.1608804 1.0812241 0.8811269 1.3925012 1.3101705 0.8721154 0.619867
00000000: 311f 8a3f 8f6b 903f 4e43 8b3f 6fc8 8e3f
00000010: 7e67 853f cb90 0a3f 3eec 8c3f 9fa9 033f
00000020: 76ce 4e3f 0faa 7c3f b863 6f3f 0833 2f3f
00000030: 8885 8e3f 496b a13f 93c3 9e3f 5fb2 893f
00000040: 3402 a33f 86c5 853f 2fcd 4b3f 0a3d 9f3f
00000050: ed3f 533f d8d5 8e3f 3fff 8f3f e62c e83e
00000060: 0aa2 5a3f bb97 943f 8d65 8a3f 8891 613f
00000070: 7b3d b23f abb3 a73f f442 5f3f 9baf 1e3f

classifier.model.7.bias f4 [32]
-0.28175437 -0.06160228 -0.051439445 0.042140953 -0.021259328 0.0057904483 -0.14198461 0.06340714
0.42047814 0.021334292 -0.0053212126 -0.22468014 0.032316975 -0.26082706 -0.19310592 -0.34741133
-0.008545914 -0.0931446 0.05261468 -0.12667695 -0.19077961 -0.11137845 0.039963868 0.31096753
0.07331617 -0.064974055 -0.074442744 -0.015506086 0.2323449 -0.14102589 0.33149946 0.20279247
00000000: 1c42 90be ac52 7cbd 2bb2 52bd fe9b 2c3d
00000010: 0b28 aebc cdbd bd3b 6a64 11be 9adb 813d
00000020: e948 d73e 41c5 ae3c 915d aebb 8d12 66be
00000030: ce5e 043d 208b 85be 8fbd 45be e6df b1be
00000040: 2904 0cbc 99c2 bebd 7e82 573d 9ab7 01be
00000050: bb5b 43be 631a e4bd 27b1 233d 2337 9f3e
00000060: ca26 963d 1e11 85bd 7075 98bd 3d0d 7ebc
00000070: d2eb 6d3e 1769 10be 4cba a93e d4a8 4f3e

classifier.model.8.weight f4 [64, 32, 1, 1]
0.097697094 0.39427263 0.056071058 -0.46107662 -0.06260105 0.35840973 0.046981025 -0.4652037
-0.42017838 0.020833207 -0.16716796 0.52696896 -0.38823655 0.2677057 0.060827967 0.3138356
-0.21322793 0.18036437 0.4990847 -0.19650514 0.10425065 -0.32616842 0.22261903 0.17684802
0.08543861 -0.050878856 -0.055236936 -0.17540403 -0.17918748 -0.09251943 -0.10316753 -0.49087974
-0.21558142 0.08125675 -0.3147728 -0.026521022 0.07268089 0.66460216 0.049808532 -0.13977087
0.31330505 0.18562467 0.14182521 -0.09879465 0.29268453 0.70019275 0.33971936 0.33528003
-0.25936064 -0.55768126 -0.05350458 0.08240881 0.5318058 0.11690559 -0.10091601 -0.22537246
0.4068689 -0.17731345 0.05696626 -0.40946272 -0.21204737 0.15360852 0.11902667 0.16572061
0.45547593 -0.37504876 -0.27096164 -0.2840107 0.1343142 -0.09888405 -0.41652825 -0.041044142
-0.33479157 -0.05637251 0.18079613 0.44476104 -0.10629298 0.15978423 0.4690942 0.20707233
0.1238663 0.22530015 -0.045966644 -0.482014 0.112496294 0.3408016 -0.32381257 -0.052317288
0.38658643 0.19873267 -0.15780152 -0.16577408 0.5902127 -0.008400992 0.15502901 0.20919763
0.32748047 -0.5893586 -0.71853447 -0.23111017 0.19237539 -0.10972452 0.24820825 0.056683026
0.40896165 -0.15938672 0.1468665 -0.366141 -0.46458477 -0.15788336 0.23036055 0.24877676
0.042476624 0.12013256 0.39795235 0.045910716 -0.07849139 0.24764857 0.4584256 -0.029816942
0.044499204 0.0010906216 0.20174737 -0.17224312 0.22705555 -0.07582496 0.19882935 0.22840533
0.2804134 -0.59708846 -0.08796918 0.14687161 0.29047158 0.062338542 -0.2623215 -0.3268955
-0.3659549 0.55281514 -0.19762468 0.042625494 0.07848072 0.4842784 0.2846368 -0.19200844
0.39430916 -0.2069081 -0.09894661 0.09775132 0.33309418 0.6220265 0.13407493 -0.15539394
-0.13890864 0.70437336 0.029352905 -0.1897148 -0.029001188 -0.13164096 0.25970554 0.1335268
0.30447704 0.47856113 -0.44490036 -0.47912404 0.04122387 0.22365004 -0.057867516 0.20367876
-0.496714 -0.09561727 -0.43655545 0.08936029 -0.13683131 0.27225018 0.3010057 -0.100173235
0.23662238 -0.11487253 0.31093326 -0.26504803 0.25408813 -0.3655158 0.1322142 -0.08427442
-0.16976793 0.08940397 -0.22379918 0.11559825 -0.063546464 -0.5246697 -0.035748098 0.16658665
0.17595036 -0.32093462 0.40764305 0.2900574 0.086275995 0.41820052 0.2657226 0.35002008
-0.2435636 0.24218261 0.18360281 0.44349447 0.26435474 0.2849016 0.13625093 -0.0895602
0.19270904 -0.023215124 0.043820355 -0.4077653 0.31999987 0.14789768 -0.29583523 0.14331931
-0.14657591 0.37752804 -0.56772155 0.62881494 0.39329562 0.21345562 0.29789102 -0.15155503
-0.36547887 0.09581048 0.40006188 -0.1279965 0.09299483 -0.121359415 -0.7284931 -0.19276303
-0.47388098 -0.09575508 0.041751232 0.29960215 0.05016756 -0.36704466 -0.013012238 -0.23456344
0.3627164 -0.61616737 -0.21390921 0.3320812 0.16152102 0.14838381 -0.22167432 0.116627045
0.098222576 -0.40839994 -0.1782569 0.003601283 0.3117197 0.029004265 0.09640303 -0.13502139
00000000: 6a15 c83d 1ade c93e c4aa 653d 3c12 ecbe
00000010: fb34 80bd 7b81 b73e 2d6f 403d 2e2f eebe
00000020: 9f21 d7be 67aa aa3c 142e 2bbe 70e7 063f
00000030: f1c6 c6be b910 893e bf26 793d 0faf a03e
00000040: 6c58 5abe 70b1 383e 0888 ff3e a538 49be
00000050: 5d81 d53d 8cff a6be 3ef6 633e a617 353e
00000060: 70fa ae3d 5966 50bd 2040 62bd 1d9d 33be
00000070: ec7c 37be d47a bdbd 7f49 d3bd 9754 fbbe
00000080: 60c1 5cbe f069 a63d e729 a1be 9d42 d9bc
00000090: b8d9 943d 5e23 2a3f 0804 4c3d 1820 0fbe
000000a0: 8569 a03e 6514 3e3e a13a 113e d954 cabd
000000b0: bfda 953e d53f 333f b2ef ad3e d3a9 ab3e
000000c0: ebca 84be 33c4 0ebf 9e27 5bbd f3c5 a83d
000000d0: 6d24 083f 336c ef3d 0ead cebd 0ac8 66be
000000e0: 1f51 d03e a891 35be 7455 693d 19a5 d1be
000000f0: f222 59be 8d4b 1d3e 41c4 f33d aab2 293e
00000100: 2434 e93e 6406 c0be 7cbb 8abe da69 91be
00000110: a989 093e b983 cabd 3143 d5be e71d 28bd
00000120: cd69 abbe dce6 66bd 9f22 393e b8b7 e33e
00000130: 22b0 d9bd 7a9e 233e 1d2d f03e c50a 543e
00000140: 9dad fd3d 15b5 663e 8547 3cbd 8aca f6be
00000150: 7564 e63d 8c7d ae3e c3ca a5be a74a 56bd
00000160: a8ee c53e 9480 4b3e b996 21be aec0 29be
00000170: 2e18 173f 50a4 09bc edbf 1e3e e737 563e
00000180: 85ab a73e 35e0 16bf e0f1 37bf 25a8 6cbe
00000190: 0efe 443e 40b7 e0bd 4e2a 7e3e 762c 683d
000001a0: 6c63 d13e 4636 23be 2c64 163e d576 bbbe
000001b0: 0ede edbe 2dac 21be a3e3 6b3e 56bf 7e3e
000001c0: f8fb 2d3d 0f08 f63d 69c0 cb3e e00c 3c3d
000001d0: 18c0 a0bd 9697 7d3e c3b6 ea3e a942 f4bc
000001e0: cc44 363d 30f3 8e3a dd96 4e3e 8060 30be
000001f0: 4081 683e 1e4a 9bbd ec99 4b3e 16e3 693e
00000200: 5892 8f3e cada 18bf 2f29 b4bd 8365 163e
00000210: b1b8 943e b356 7f3d 014f 86be d95e a7be
00000220: 715e bbbe 4b85 0d3f 205e 4abe 1298 2e3d
00000230: 80ba a03d 57f3 f73e eabb 913e dc9d 44be
00000240: e4e2 c93e b8df 53be 85a4 cabd d831 c83d
00000250: 528b aa3e 213d 1f3f f04a 093e 971f 1fbe
00000260: 113e 0ebe d051 343f 8175 f03c 9944 42be
00000270: e693 edbc e3cc 06be 20f8 843e 40bb 083e
00000280: 6ae4 9b3e f705 f53e fbc9 e3be bf4f f5be
00000290: 5cda 283d 8404 653e 7d06 6dbd 2a91 503e
000002a0: 4c51 febe fdd2 c3bd 3284 dfbe 8702 b73d
000002b0: 821d 0cbe 6064 8b3e 6b1d 9a3e a027 cdbd
000002c0: 234d 723e 4a42 ebbd a532 9f3e 60b4 87be
000002d0: d717 823e e324 bbbe 2963 073e 1198 acbd
000002e0: a5d7 2dbe 6e19 b73d 9d2b 65be c6be ec3d
000002f0: a624 82bd c150 06bf 996c 12bd b195 2a3e
00000300: 552c 343e 8b51 a4be 97b6 d03e 6782 943e
00000310: 78b1 b03d 611e d63e cb0c 883e d535 b33e
00000320: bd68 79be b8fe 773e 6002 3c3e b511 e33e
00000330: 8159 873e 9fde 913e 5d85 0b3e 576b b7bd
00000340: 8555 453e a52d bebc f97c 333d 9dc6 d0be
00000350: 06d7 a33e 7d72 173e b777 97be 4cc2 123e
00000360: ff17 16be 5b4b c13e 3356 11bf 04fa 203f
00000370: 0b5e c93e 1c94 5a3e 2c85 983e 3e31 1bbe
00000380: 0c20 bbbe 4938 c43d e9d4 cc3e 8411 03be
00000390: 1374 be3d 498b f8bd 867e 3abf ac63 45be
000003a0: 87a0 f2be 3d1b c4bd 5703 2b3d 7465 993e
000003b0: 807c 4d3d 47ed bbbe 4831 55bc 6631 70be
000003c0: f7b5 b93e 25bd 1dbf 040b 5bbe 8c06 aa3e
000003d0: c465 253e edf1 173e 98fe 62be 29da ee3d
000003e0: eb28 c93d cc19 d1be fa88 36be 8103 6c3b
000003f0: b999 9f3e 5a9a ed3c f46e c53d 0c43 0abe

classifier.model.8.bias f4 [64]
-0.25171748 -0.13052374 -0.48793635 -0.08027022 -0.18537714 -0.36567265 -0.18473823 -0.12132135
-0.0032492576 -0.29453084 -0.25038853 -0.6735051 -0.09221487 -0.5214124 -0.52102864 -0.45467412
-0.3152682 -0.63744056 -0.43283272 0.10012453 -0.7423178 -0.21717755 0.13122645 -0.32157367
-0.46301687 0.060330413 -0.18952742 -0.09525273 -0.102427095 0.045932293 -0.10746383 -0.11629009
-1.432755 -0.08622164 -0.98582166 -0.11220601 0.16670169 -0.473359 -0.54687154 -0.7936227
-0.043176502 -0.5190738 -0.96990937 -0.1882956 -0.37327328 -0.09011344 -0.9137518 -0.33439425
-0.2793216 0.013373826 -0.11578511 -0.32165703 0.107359916 -0.34292126 -0.2612731 -0.3321262
-0.22800368 -0.48600462 0.122500345 -0.35494924 -0.600596 -0.68208086 -0.33242738 -0.12685859
00000000: 1de1 80be 04a8 05be cbd2 f9be b764 a4bd
00000010: 81d3 3dbe 7239 bbbe 052c 3dbe 5477 f8bd
00000020: 7ff1 54bb bfcc 96be ed32 80be d56a 2cbf
00000030: 26db bcbd 487b 05bf 2262 05bf 0ccb e8be
00000040: d56a a1be 4e2f 23bf 409c ddbe 170e cd3d
00000050: 8a08 3ebf cb63 5ebe 3a60 063e 4ea5 a4be
00000060: 8c10 edbe 061d 773d 7a13 42be dd13 c3bd
00000070: 4cc5 d1bd 8023 3c3d ff15 dcbd 8029 eebd
00000080: 8464 b7bf f994 b0bd cf5e 7cbf 44cc e5bd
00000090: d9b3 2a3e 1c5c f2be c6ff 0bbf db2a 4bbf
000000a0: d8d9 30bd 05e2 04bf fb4b 78bf 90d0 40be
000000b0: ad1d bfbe 658d b8bd a3eb 69bf b935 abbe
000000c0: 3e03 8fbe e41d 5b3c be20 edbd 3bb0 a4be
000000d0: 84df db3d 6093 afbe 96c5 85be 720c aabe
000000e0: cc79 69be 99d5 f8be 76e1 fa3d e8bb b5be
000000f0: a9c0 19bf da9c 2ebf ec33 aabe 38e7 01be

classifier.model.11.weight f4 [64]
1.2854294 0.9981419 1.0191145 0.80260515 1.1792349 0.71008456 1.2569828 0.91914636
0.89126265 1.2916164 1.2547557 1.0625869 0.7744864 1.8083106 0.9364369 0.8094453
0.81495696 1.1970801 1.0345957 1.0479417 1.3755106 0.92952937 0.7132591 1.0609769
1.0758934 1.1650442 0.7543239 0.52638423 1.2701017 1.0732635 0.9911073 0.90732896
1.5632423 1.0250568 1.0901655 0.4512092 0.82299185 1.0914252 1.0428804 1.2656325
1.0710176 1.0932597 1.3173908 0.93442047 1.3338671 1.1714355 0.6391265 1.1516416
0.8358788 0.9316409 0.87663996 1.0134989 1.079885 0.938581 1.021729 0.7680082
0.94000816 0.83108366 0.919566 0.9884291 1.0995868 0.99871266 1.2445565 1.1250637
00000000: f388 a43f 3a86 7f3f 5872 823f 8877 4d3f
00000010: 2bf1 963f 1ac8 353f d0e4 a03f 2d4d 6b3f
00000020: ca29 643f b053 a53f d69b a03f d902 883f
00000030: be44 463f b976 e73f 54ba 6f3f cf37 4f3f
00000040: 05a1 503f ec39 993f a26d 843f f422 863f
00000050: bb10 b03f a3f5 6d3f 2698 363f 17ce 873f
00000060: e0b6 893f 2b20 953f 5f1b 413f 1ec1 063f
00000070: b192 a23f b360 893f 35b9 7d3f b646 683f
00000080: 5318 c83f 1035 833f 8b8a 8b3f e404 e73e
00000090: 98af 523f d2b3 8b3f 1b7d 853f 3f00 a23f
000000a0: 1b17 893f efef 8b3f 43a0 a83f 2e36 6f3f
000000b0: 28bc aa3f 99f1 953f cb9d 233f fe68 933f
000000c0: 27fc 553f 0580 6e3f 7a6b 603f 55ba 813f
000000d0: ac39 8a3f d846 703f 04c8 823f 2f9c 443f
000000e0: 60a4 703f e6c1 543f ad68 6b3f b109 7d3f
000000f0: 43bf 8c3f a2ab 7f3f a14d 9f3f 1602 903f

classifier.model.11.bias f4 [64]
-0.13464332 0.365992 0.02097396 0.4471373 -0.26916468 -0.389028 0.009172079 0.11044787
0.021653673 -0.48066252 -0.2341099 0.08678995 0.04194603 -0.10423723 -0.19999696 -0.33251297
0.05042812 -0.50334245 0.013456427 -0.17235008 -0.15091206 -0.0746456 -0.08528692 -0.2592956
0.016633177 0.27645916 -0.20113283 -0.3322133 0.12639867 0.078280315 0.24116457 -0.3013047
0.27882355 -0.01748114 -0.0027697443 0.25661868 -0.50058204 -0.23767915 0.39699024 0.10490894
0.14007866 -0.33862245 -0.14861849 -0.14691703 -0.47627607 0.28332338 -0.28919047 0.09142921
-0.09564847 -0.0071433014 -0.15686424 0.081160255 0.05573826 -0.29303068 -0.19346464 0.090523414
0.004036519 0.09945043 0.31290928 0.17358604 -0.13388823 0.09588933 -0.16742462 0.15052114
00000000: f0df 09be 4e63 bb3e 95d1 ab3c 2eef e43e
00000010: f4cf 89be ae2e c7be 7d46 163c 7e32 e23d
00000020: 0b63 b13c 6619 f6be 81ba 6fbe eebe b13d
00000030: 9acf 2b3d 547a d5bd 01cc 4cbe 243f aabe
00000040: b78d 4e3d 0ddb 00bf 5878 5c3c 8a7c 30be
00000050: b188 1abe cbdf 98bd e9aa aebd 65c2 84be
00000060: 4d42 883c 0e8c 8d3e c4f5 4dbe dd17 aabe
00000070: a76e 013e 6e51 a03d d8f3 763e 9c44 9abe
00000080: f6c1 8e3e 9c34 8fbc 9984 35bb 8663 833e
00000090: 2526 00bf 2a62 73be 4e42 cb3e 80da d63d
000000a0: c870 0f3e ec5f adbe 722f 18be 6b71 16be
000000b0: 75da f3be c30f 913e c610 94be 3d3f bb3d
000000c0: 58e3 c3bd 5b12 eabb 05a1 20be 5937 a63d
000000d0: cd4d 643d 1e08 96be 981b 46be 5764 b93d
000000e0: c744 843b abac cb3d a535 a03e 8ac0 313e
000000f0: ff19 09be a061 c43d 5c71 2bbe 3722 1a3e

classifier.model.12.weight f4 [128, 64, 1, 1]
-0.045501385 -0.2477041 -0.22800682 0.08785266 0.0023368795 0.18714899 -0.09734678 0.06779404
0.22881244 0.338684 -0.25793418 -0.11953572 -0.38019162 -0.029343138 -0.088725545 -0.39763987
0.27422282 -0.031298902 0.517381 -0.045692615 0.27572083 -0.28776798 -0.24510309 -0.2077415
-0.14721346 -0.29396513 -0.29650894 0.22541012 -0.20114204 0.3457962 0.551487 0.07954239
-0.44362718 0.41861355 -0.12172153 -0.2686699 -0.0033810122 -0.044372283 -0.049370635 0.2849405
0.44204572 -0.17193262 0.4433861 -0.49375537 -0.07211409 -0.25010836 0.13013443 0.058235306
-0.43020445 0.21062729 0.06814276 0.25601608 0.18513836 0.14477943 0.19222163 0.0009014917
-0.4837721 0.2651456 0.025582947 -0.09104509 -0.023000354 0.79985404 -0.3013004 -0.17025994
-0.20011224 -0.31079876 0.045263056 -0.2242261 0.3995285 -0.038360853 -0.5210888 0.24156536
-0.06039496 0.21124458 0.47514793 -0.22101142 0.016664008 -0.26545656 0.094920926 -0.44852343
0.3989014 0.1346899 0.3464386 0.6381031 -0.09264408 0.10181134 -0.3312663 -0.14666207
-0.21248189 0.07865136 -0.010650799 0.12634628 0.279059 0.40723613 0.16081893 -0.18238094
-0.3406535 -0.17647023 0.17833516 -0.032952182 0.107350744 0.17220734 -0.07339788 -0.12843253
-0.33675346 -0.11952319 0.39241952 0.06600759 0.62480354 -0.27515617 0.27803555 -0.33085263
-0.033539332 -0.15545677 -0.325428 -0.2642753 -0.1557601 0.28459337 0.03389304 -0.38279846
0.084851734 -0.093901366 -0.5239957 -0.22499146 0.16483037 -0.19029222 -0.1563475 -0.08300765
0.27996346 0.1662167 -0.33003297 -0.11971799 -0.13125587 0.0935493 -0.5027001 -0.41982418
0.38933042 -0.20063397 -0.26662615 -0.20804235 -0.06806046 -0.3432804 -0.258217 -0.3640801
0.14171751 -0.22357303 0.24711195 -0.34428892 0.011329984 -0.12970704 0.25986674 0.27671733
0.36526683 0.3557611 -0.17893766 -0.045769326 -0.40592733 -0.45117787 -0.009277675 0.16850138
0.0060398513 -0.45081916 0.11196024 -0.34139732 0.067662224 0.29671988 -0.4909498 0.27578706
0.19486193 0.0126556605 0.22007133 -0.41768613 0.24583493 0.2191574 -0.087947704 -0.019080171
-0.042999614 0.21937749 -0.09279673 -0.30057693 0.31716713 -0.49882495 -0.3688501 0.42601076
-0.7137997 -0.37185225 -0.11958591 -0.22238119 0.052773874 -0.09033958 0.22440723 -0.07265494
-0.33299643 -0.18060033 -0.18689701 -0.062072445 -0.09044068 -0.08298415 -0.3666708 0.06430861
-0.1801723 -0.47486547 0.079957716 0.15805128 0.23019567 0.6123413 -0.033290382 0.21054095
-0.21742833 0.35579312 -0.2661546 -0.67831373 -0.30549476 0.2480103 0.23513028 0.40625963
0.1823664 -0.06413594 -0.012114863 0.17934915 0.40412506 -0.09814892 0.07787268 0.33456305
-0.3538233 0.3505776 -0.33018905 0.0041385237 0.54396915 -0.26593336 0.2994096 0.118424214
-0.25254536 -0.30422458 -0.09457433 0.21172284 -0.118679635 -0.11757188 -0.19278435 0.07767152
-0.06568015 -0.44842944 -0.15753677 -0.06719643 -0.4880749 0.17311278 0.09787563 -0.2496176
0.12452408 0.2942979 0.036915828 0.28100395 0.06385495 -0.29322076 -0.35696745 -0.16477731
00000000: a95f 3abd 25a6 7dbe 9f7a 69be 18ec b33d
00000010: 5526 193b fca3 3f3e c05d c7bd 9ad7 8a3d
00000020: cf4d 6a3e fd67 ad3e f30f 84be 25cf f4bd
00000030: 7aa8 c2be 0561 f0bc bdb5 b5bd 7497 cbbe
00000040: ef66 8c3e 4733 00bd 1573 043f 2e28 3bbd
00000050: 482b 8d3e 5356 93be 4efc 7abe 30ba 54be
00000060: 20bf 16be 9982 96be 05d0 97be e9d1 663e
00000070: 2ef8 4dbe 330c b13e 412e 0d3f 1fe7 a23d
00000080: 1a23 e3be 8454 d63e 2349 f9bd 1a8f 89be
00000090: f993 5dbb b6bf 35bd dd38 4abd b9e3 913e
000000a0: d153 e23e 1b0f 30be 8103 e33e 81cd fcbe
000000b0: 8db0 93bd 340e 80be f641 053e 2588 6e3d
000000c0: c243 dcbe aeae 573e 6e8e 8b3d 8a14 833e
000000d0: e994 3d3e 0f41 143e bfd5 443e 1552 6c3a
000000e0: fab0 f7be 2ac1 873e 5493 d13c d975 babd
000000f0: 3d6b bcbc 3cc3 4c3f 0c44 9abe 9f58 2ebe
00000100: 39ea 4cbe 0421 9fbe c165 393d 879b 65be
00000110: 008f cc3e 4520 1dbd 1366 05bf e95c 773e
00000120: b560 77bd 8050 583e 9746 f33e d150 62be
00000130: f582 883c ece9 87be e765 c23d dda4 e5be
00000140: ce3c cc3e 26ec 093e 6660 b13e ba5a 233f
00000150: 2ebc bdbd 7782 d03d bd9b a9be 952e 16be
00000160: da94 59be f713 a13d b080 2ebc eb60 013e
00000170: d2e0 8e3e 4181 d03e b8ad 243e 12c2 3abe
00000180: 236a aebe 9db4 34be 7e9d 363e def8 06bd
00000190: b5da db3d 1f57 303e a151 96bd d183 03be
000001a0: f36a acbe 93c8 f4bd 36eb c83e fd2e 873d
000001b0: 20f3 1f3f 45e1 8cbe ad5a 8e3e 8465 a9be
000001c0: 8a60 09bd 0f30 1fbe 809e a6be 184f 87be
000001d0: 937f 1fbe 39b6 913e 6ed3 0a3d 29fe c3be
000001e0: bfc6 ad3d 5c4f c0bd 9524 06bf 2964 66be
000001f0: 4bc9 283e f7db 42be 8f19 20be eaff a9bd
00000200: 5f57 8f3e b634 2a3e 15fa a8be b52e f5bd
00000210: f067 06be c796 bf3d f4b0 00bf 32f3 d6be
00000220: 5156 c73e fe72 4dbe 3983 88be 0e09 55be
00000230: 4863 8bbd 73c2 afbe 0535 84be b568 babe
00000240: 651e 113e 54f0 64be ea0a 7d3e a346 b0be
00000250: 66a1 393c ecd1 04be 410d 853e e5ad 8d3e
00000260: 4104 bb3e 5226 b63e 6f3b 37be 9e78 3bbd
00000270: b5d5 cfbe c900 e7be 6401 18bc a08b 2c3e
00000280: f2e9 c53b c5d1 e6be 694b e53d a1cb aebe
00000290: 7e92 8a3d abeb 973e c65d fbbe f633 8d3e
000002a0: e389 473e b059 4f3c 615a 613e f5da d5be
000002b0: 27bc 7b3e cc6a 603e ed1d b4bd 054e 9cbc
000002c0: 5d20 30bd 7ea4 603e 360c bebd 38e5 99be
000002d0: bb63 a23e fc65 ffbe ecd9 bcbe 151e da3e
000002e0: 94bb 36bf 6b63 bebe 75e9 f4bd e5b7 63be
000002f0: 6b29 583d f503 b9bd 02cb 653e 1dcc 94bd
00000300: 827e aabe 4bef 38be ee61 3fbe ad3f 7ebd
00000310: f738 b9bd 98f3 a9bd 46bc bbbe 3cb4 833d
00000320: 167f 38be 9121 f3be dfc0 a33d 32d8 213e
00000330: 6ab8 6b3e 66c2 1c3f 7f5b 08bd 0c98 573e
00000340: 88a5 5ebe 842a b63e 6a45 88be f8a5 2dbf
00000350: cf69 9cbe 69f6 7d3e fec5 703e 4301 d03e
00000360: 42be 3a3e b459 83bd 6b7d 46bc 4ea7 373e
00000370: 7be9 ce3e 4d02 c9bd b67b 9f3d d94b ab3e
00000380: 5428 b5be e87e b33e 8a0e a9be 749c 873b
00000390: 9041 0b3f 6b28 88be 374c 993e 6588 f23d
000003a0: a04d 81be 53c3 9bbe 30b0 c1bd dfcd 583e
000003b0: 4f0e f3bd 87c9 f0bd 4369 45be 3f12 9f3d
000003c0: 5183 86bd 8b98 e5be 5251 21be 489e 89bd
000003d0: f4e4 f9be 7a44 313e 0573 c83d c29b 7fbe
000003e0: 7b06 ff3d 37ae 963e 0d35 173d c0df 8f3e
000003f0: 62c6 823d 0821 96be 70c4 b6be 62bb 28be

classifier.model.12.bias f4 [128]
-0.3980895 -0.039360847 -0.48445526 -0.39458433 -0.72323394 -0.35292178 -0.58763057 -0.04900673
-0.43568856 -0.486273 -0.59942067 -0.22574334 -0.3727638 -0.6422754 -0.45515007 -0.40100047
-0.47737733 -0.13154596 -0.5089995 -0.60504866 -0.32629102 -0.4513593 -0.47321704 -0.8590609
0.14736821 -0.10899523 -0.18917029 -0.23227803 -0.33465627 -1.0168378 -0.05593162 -0.16045772
-0.36559147 -0.20150818 -0.6336824 -0.2589644 -0.35080847 -0.15821216 -0.29668894 -0.11731614
-0.7075284 0.040112045 -0.99531674 -0.10078485 -0.20319243 0.10872052 -0.32791457 -0.28575632
-0.9716898 -0.33147767 -0.4487083 -1.0569043 -0.07083396 -0.05732148 -0.29583418 0.020523617
-0.41962427 -0.16976291 -0.20949988 -0.8101912 -0.8024489 -0.35784346 -0.70270604 -1.265625
-0.45071417 -0.8543002 -0.016519196 -0.123696275 0.012249536 -0.2067191 0.042206928 -0.91874516
-0.35561052 -0.5868455 -0.2543982 -0.44109476 -0.13511005 -0.5801889 -0.18479708 -0.0065192
-0.65377176 -0.2973615 0.0019341701 -0.20454353 -1.0855755 -0.8958292 -0.2385616 -0.5607703
-0.8011946 -0.2249443 -1.2663486 -0.33536413 -0.47315732 -0.9239925 -0.6579818 0.1455657
-0.1509344 -0.1581399 -0.50097644 -0.02586666 -0.83159226 -0.28111425 -0.8426573 -0.32508597
-0.78568834 -0.09724478 0.027982779 -0.50696 -1.2379764 -1.197663 -0.9934418 -0.39273196
-0.036148064 0.027725358 -0.758251 -0.9904938 0.2203468 -0.32344052 -0.46849343 -0.27167177
-0.6137907 -1.2707598 -0.29876557 -0.047081333 -0.36081803 -0.95727146 -0.60694486 -0.19106914
00000000: 63d2 cbbe d738 21bd 850a f8be f506 cabe
00000010: dc25 39bf 2ab2 b4be f56e 16bf 48bb 48bd
00000020: 9212 dfbe c6f8 f8be a273 19bf 4329 67be
00000030: e6da bebe 296c 24bf 6e09 e9be ef4f cdbe
00000040: cd6a f4be fcb3 06be cb4d 02bf 78e4 1abf
00000050: 9e0f a7be 9118 e7be 8149 f2be 6aeb 5bbf
00000060: b1e7 163e e438 dfbd dbb5 41be 4bda 6dbe
00000070: 1158 abbe be27 82bf 8e18 65bd 074f 24be
00000080: ce2e bbbe 2958 4ebe 0339 22bf fb96 84be
00000090: 2b9d b3be 5e02 22be 9de7 97be 7243 f0bd
000000a0: 9520 35bf 874c 243d 14cd 7ebf 4a68 cebd
000000b0: ad11 50be dda8 de3d 6be4 a7be a74e 92be
000000c0: aac0 78bf 71b7 a9be 18bd e5be a448 87bf
000000d0: 6511 91bd eec9 6abd 9477 97be 2521 a83c
000000e0: fed8 d6be 54d6 2dbe 2387 56be b168 4fbf
000000f0: 4b6d 4dbf 4237 b7be 8be4 33bf 0000 a2bf
00000100: 02c4 e6be 6bb3 5abf 4453 87bc 7954 fdbd
00000110: 47b2 483c 2cae 53be 2ce1 2c3d e232 6bbf
00000120: 9512 b6be 823b 16bf 7b40 82be 2cd7 e1be
00000130: 4a5a 0abe 4287 14bf 723b 3dbe 039f d5bb
00000140: 965d 27bf c43f 98be fb83 fd3a dc73 51be
00000150: 23f4 8abf 1055 65bf 7e49 74be a48e 0fbf
00000160: 171b 4dbf cc57 66be b617 a2bf d9b4 abbe
00000170: ad41 f2be c68a 6cbf 7f71 28bf 2d0f 153e
00000180: 8c8e 1abe 6def 21be fe3f 00bf 51e6 d3bc
00000190: 3be3 54bf 35ee 8fbe 64b8 57bf ab71 a6be
000001a0: df22 49bf 4528 c7bd 243c e53c 21c8 01bf
000001b0: 0376 9ebf 054d 99bf 3452 7ebf 2a14 c9be
000001c0: fe0f 14bd 4a20 e33c bd1c 42bf 0091 7dbf
000001d0: 97a2 613e ff99 a5be 5fde efbe 9018 8bbe
000001e0: 6321 1dbf 42a8 a2bf cdf7 98be 5bd8 40bd
000001f0: 24bd b8be be0f 75bf bd60 1bbf a1a7 43be

classifier.model.15.weight f4 [128]
0.07343201 0.21385853 0.16670088 0.23815875 0.097847305 0.06298329 0.017744424 0.18648605
0.16230232 0.13812189 0.23027071 0.25307634 0.22729786 0.052312754 0.11617645 0.21290685
0.25955126 0.13085367 0.15416186 0.18406993 0.15152714 0.22338353 0.25695416 0.16118932
0.16504796 0.1647749 0.17023678 0.03770783 0.037656654 0.26041198 0.27611202 0.12936
0.19916983 0.1470698 0.20283318 0.6246102 0.13384892 0.22038856 0.26038584 0.058780532
0.18251345 0.13311483 0.0042469655 0.08033586 0.12521677 0.10246724 0.0841362 0.12189491
0.25297537 0.27163842 0.24272902 0.1849056 0.164776 0.19364138 0.08180291 0.1442238
0.05467742 0.12835981 0.11783626 0.12231452 0.14741482 0.09446565 0.18506867 0.21893968
0.11137883 0.13166901 0.21851936 0.21515642 0.20756644 0.12990694 0.13037576 0.1658338
0.32435971 0.20765388 0.19129382 0.0954674 0.21353427 0.45549476 0.2800693 0.2540788
0.4419584 0.15159033 0.14270902 0.1462261 0.01983472 0.11173117 0.10833043 0.16466318
0.12813741 0.26379055 0.049905878 0.121058956 0.06299809 0.0026758127 0.119139 0.2690782
0.15587895 0.3060982 0.07700205 0.14293489 -0.008241068 0.19804746 0.20128933 0.13063346
0.17074317 0.42971304 0.120110825 0.41579363 0.12512575 -0.0010406057 0.19841915 0.188127
0.2828097 0.10105364 0.112297945 0.15514223 0.26165465 0.19758682 0.1957058 0.14227027
0.1764363 -0.002322618 0.22619176 0.1631514 0.12178438 0.13507983 0.112010434 0.143
00000000: 8663 963d bbfd 5a3e a3b3 2a3e e3df 733e
00000010: 2b64 c83d 62fd 803d c15c 913c 33f6 3e3e
00000020: 9432 263e d36f 0d3e 16cc 6b3e 3993 813e
00000030: c5c0 683e e645 563d ebed ed3d 4104 5a3e
00000040: e7e3 843e 81fe 053e 9bdc 1d3e d47c 3c3e
00000050: ee29 1b3e a7be 643e 7f8f 833e d00e 253e
00000060: 5502 293e c0ba 283e 8d52 2e3e 8773 1a3d
00000070: dd3d 1a3d b854 853e 8e5e 8d3e f376 043e
00000080: 2df3 4b3e 7799 163e 80b3 4f3e 74e6 1f3f
00000090: b10f 093e 8aad 613e 4b51 853e dbc3 703d
000000a0: cee4 3a3e 414f 083e 212a 8b3b 2187 a43d
000000b0: d338 003e 58da d13d 9a4f ac3d 0aa4 f93d
000000c0: fd85 813e 3114 8b3e f58d 783e e557 3d3e
000000d0: 0abb 283e ed49 463e 4988 a73d 67af 133e
000000e0: 6ef5 5f3d c170 033e 2354 f13d 0980 fa3d
000000f0: e9f3 163e 3577 c13d a482 3d3e b931 603e
00000100: 961a e43d 3ed4 063e 8ac3 5f3e f751 5c3e
00000110: 4c8c 543e 5306 053e 3981 053e 56d0 293e
00000120: 7a12 a63e 38a3 543e 87e2 433e 6a84 c33d
00000130: baa8 5a3e 9c36 e93e 3e65 8f3e 9e16 823e
00000140: 5f48 e23e 7f3a 1b3e 5022 123e 4bbc 153e
00000150: 6c7c a23c 50d3 e43d 58dc dd3d 779d 283e
00000160: 7436 033e 8e0f 873e 1b6a 4c3d c2ed f73d
00000170: 2505 813d b05c 2f3b 26ff f33d 9ec4 893e
00000180: bb9e 1f3e e7b8 9c3e 40b3 9d3d 865d 123e
00000190: 8b05 07bc f4cc 4a3e ca1e 4e3e c7c4 053e
000001a0: 4cd7 2e3e 5903 dc3e aafc f53d e7e2 d43e
000001b0: f720 003e ef64 88ba 642e 4b3e 5da4 403e
000001c0: 6fcc 903e 36f5 ce3d 77fc e53d 9bdd 1e3e
000001d0: 99f7 853e 3354 4a3e 1a67 483e 4caf 113e
000001e0: b8ab 343e 1037 18bb d09e 673e 2911 273e
000001f0: 176a f93d 5e52 0a3e ba65 e53d 986e 123e

classifier.model.15.bias f4 [128]
0.0024333408 0.0039273673 -0.005451063 0.0025211838 0.011077478 -0.000119345365 0.0016664406 -0.007946223
0.008466835 0.0067410395 0.009317722 0.0005476417 -0.007208311 0.0066470955 -0.0043335888 0.0015387166
0.0063332347 -0.0062007704 -0.0031312623 0.011677325 -0.001048281 0.006360081 0.0011441053 -0.0106327
-0.0031290187 -0.009700574 -0.005146808 0.005480389 0.0020296727 0.011896153 -0.010903252 -0.0022069337
-0.0010587288 -0.006829824 0.013166828 0.09638573 -0.00634846 0.0019845203 -0.0056674075 0.006839679
-0.005949723 0.0044633336 -8.183738e-05 0.00031908575 0.004914125 0.0032356975 -0.0072194366 0.0075816964
0.01335487 -0.017388359 0.006992498 0.007956192 -0.007324622 -0.009509389 -0.002033929 0.0038912783
-0.0065165237 -0.0049363486 -0.0010831632 0.0072800475 -0.0010287736 0.0017757321 0.010499564 0.01262522
0.00031767704 -0.0013358828 -0.011962064 -0.0021686747 -0.011488127 -0.00622927 0.0044169254 0.008153784
0.025863795 0.0006798728 -0.003104678 9.762606e-05 0.007061974 0.032167587 0.007050815 -0.009300438
0.043735635 0.011124465 -0.007058497 0.002739186 0.0059686145 -0.0011949207 -0.00047293765 -0.00042134555
0.0073851566 0.006436161 0.0064920746 -0.0019636694 0.0010844062 0.00018840739 0.0027153327 -0.00998759
-0.0015953382 -0.03139622 0.0008104507 -0.006132543 0.0014432585 -0.0019726316 0.019553542 -0.005097043
0.011041535 -0.026881944 0.00042097812 -0.028340854 0.010084751 -0.0013253973 0.0037987959 0.0043536616
-0.019014588 0.0049413494 0.008786325 0.00070858974 0.02333617 -0.001340851 0.0010817181 0.0014770583
0.012856008 -8.1035585e-05 0.0005660194 0.0002603938 -0.0025027476 0.0040848325 0.0017739726 -0.004904351
00000000: af78 1f3b 25b1 803b d59e b2bb 723a 253b
00000010: 4f7e 353c 0e49 fab8 786c da3a e030 02bc
00000020: 7bb8 0a3c f0e3 dc3b 5ca9 183c 9d8f 0f3a
00000030: b233 ecbb e1cf d93b c700 8ebb c3ae c93a
00000040: 0687 cf3b d52f cbbb dd35 4dbb 4052 3f3c
00000050: 7966 89ba 3a68 d03b cef5 953a c734 2ebc
00000060: 3910 4dbb 28ef 1ebc 8ea6 a8bb d694 b33b
00000070: 4204 053b 15e8 423c 8ea3 32bc 34a2 10bb
00000080: 0bc5 8aba b7cc dfbb aeb9 573c e265 c53d
00000090: be06 d0bb ba0e 023b a9b5 b9bb 631f e03b
000000a0: e5f5 c2bb 2841 923b 1ca0 abb8 f74a a739
000000b0: ab06 a13b ff0d 543b 0691 ecbb e16f f83b
000000c0: 62ce 5a3c 0872 8ebc 5321 e53b b05a 023c
000000d0: 6203 f0bb 45cd 1bbc ab4b 05bb d104 7f3b
000000e0: 9088 d5bb 18c1 a1bb edf8 8dba 778d ee3b
000000f0: ead7 86ba afbf e83a 5d06 2c3c 03da 4e3c
00000100: e48d a639 ca18 afba 88fc 43bc 5320 0ebb
00000110: b238 3cbc e71e ccbb dbbb 903b 7397 053c
00000120: 4fe0 d33c 7e39 323a da77 4bbb 98bc cc38
00000130: 2268 e73b 29c2 033d 860a e73b dd60 18bc
00000140: 2324 333d 6343 363c f74a e7bb ea83 333b
00000150: 5e94 c33b e39e 9cba 9ef4 f7b9 0be8 dcb9
00000160: 2fff f13b 6fe6 d23b 78bb d43b e8b0 00bb
00000170: a222 8e3a 398f 4539 b9f3 313b fda2 23bc
00000180: ab1a d1ba 5399 00bd 6d74 543a 80f3 c8bb
00000190: b82b bd3a 4447 01bb c02e a03c 1805 a7bb
000001a0: 8ee7 343c 8637 dcbc bab6 dc39 142b e8bc
000001b0: 833a 253c f4b8 adba 38f5 783b 29a9 8e3b
000001c0: 7bc4 9bbc 0beb a13b 85f4 0f3c a7c0 393a
000001d0: 7f2b bf3c 7ebf afba 70c8 8d3a da99 c13a
000001e0: 01a2 523c a6f1 a9b8 eb60 143a 7785 8839
000001f0: 2305 24bb 0fda 853b a584 e83a aeb4 a0bb

classifier.model.16.weight f4 [128, 128, 1, 1]
-0.41564178 -0.09800453 -0.056019813 -0.19339682 -0.016583921 0.086868644 -0.07693609 0.07746978
0.2537619 0.10825484 0.15285398 0.034949485 -0.100243345 0.13192582 -0.16624945 0.3194502
0.0073768385 -0.1203747 -0.2748093 0.14002508 0.20024905 0.21084388 -0.0114049865 -0.09049324
0.5862715 -0.050688915 0.3498157 0.11187887 -0.09114693 -0.07017967 0.27814037 0.020595724
-0.09639921 0.10944528 -0.13732877 -0.13369131 0.3496261 -0.22301337 -0.055746134 0.27064815
0.2266659 0.082687356 0.021943875 0.046934925 0.26276064 -0.19970582 0.18486618 -0.274355
0.09382245 0.4007082 -0.3662782 0.35895902 0.36767077 -0.07888956 0.26211536 0.27952182
-0.26277655 0.24790022 -0.13904804 -0.01218522 -0.32752818 0.20829205 -0.26631567 0.11546181
0.07743656 -0.073144436 0.13071664 0.06830181 0.02314824 -0.08163761 0.099832654 0.16633384
0.031404663 0.2055516 -0.17665127 -0.38704106 0.010711085 0.013108363 -0.040462244 -0.14538313
-0.036893137 -0.054321967 -0.15158251 -0.05630961 -0.01725716 -0.13619135 0.4921393 0.14238277
0.0836243 0.0658765 0.055922184 0.2731699 -5.3082866e-05 0.034190293 0.25641924 -0.49294233
-0.17098437 -0.06675453 -0.11255495 -0.083360806 0.081898585 0.11569297 -0.09383286 -0.16473131
-0.17604277 0.086324446 -0.016119454 0.31118637 -0.025442664 -0.038858466 -0.39381477 -0.2241508
-0.2863907 -0.10778695 -0.24455759 0.04961076 0.024064545 0.2712348 0.1829778 0.20824088
0.045969043 -0.0862333 0.3427694 0.045668166 0.1987092 -0.0015676771 -0.25878546 -0.050267503
-0.054908797 0.094351806 -0.16666287 0.062588766 0.08419259 0.27061892 0.1020549 0.10105974
0.124842465 0.16022299 0.39215758 -0.09917082 -0.034236446 -0.25791547 0.12580343 -0.20567082
0.35109496 0.2806056 0.24434222 0.18119274 -0.09081433 0.18091263 -0.54183596 0.089034215
-0.294432 -0.010766806 -0.049284317 -0.2664265 -0.20975113 0.32880774 -0.08845166 0.05919842
-0.24446486 0.112403065 -0.21874964 -0.26748136 0.34321243 -0.48073405 0.23401451 0.16453096
0.16954437 -0.22862364 0.021570155 0.08484536 -0.5802662 0.039731126 0.18635064 -0.40194058
0.14273083 0.15255353 0.37593323 0.090260185 -0.41440594 -0.007570476 -0.52960324 0.23424743
0.49921653 0.085999064 -0.3317348 0.024472015 0.2042968 0.25834537 -0.12246678 0.3555687
0.13056397 0.33649957 0.3548842 0.3185979 0.38473338 -0.3257311 -0.10431493 0.087296344
-0.11859844 -0.53209394 0.146858 0.49714822 0.032771487 -0.1740458 -0.06334634 0.07739761
0.0066479836 -0.21500848 0.45327568 -0.13310471 -0.101641975 0.50990885 0.32276353 -0.06534709
-0.07165432 0.08398185 -0.14815627 -0.039176315 0.12928465 0.034337822 -0.21564837 -0.2263645
-0.11304673 0.48643935 0.117684215 -0.16846298 0.05971196 -0.029915627 0.14797187 0.22485496
0.14417133 0.029890466 -0.2469809 -0.077814035 0.039448384 0.023757944 -0.03109462 0.05745829
0.3515282 -0.4291323 0.027272934 -0.2959726 0.013829357 -0.55897987 -0.4772132 0.08524552
-0.009868046 0.050901633 0.24125253 -0.22796232 -0.14671873 0.23169148 -0.22814618 -0.13513331
00000000: 00cf d4be 99b6 c8bd 0875 65bd d109 46be
00000010: 01db 87bc 30e8 b13d ab90 9dbd 7aa8 9e3d
00000020: 14ed 813e b7b4 dd3d c185 1c3e 3127 0f3d
00000030: 624c cdbd 9017 073e 4c3d 2abe fa8e a33e
00000040: 68b9 f13b 0387 f6bd ceb3 8cbe bc62 0f3e
00000050: 160e 4d3e 75e7 573e fbdb 3abc 8554 b9bd
00000060: e415 163f 2e9f 4fbd 0b1b b33e c020 e53d
00000070: 3eab babd 5cba 8fbd 6a68 8e3e 5db8 a83c
00000080: f36c c5bd d924 e03d ea9f 0cbe 60e6 08be
00000090: 3102 b33e 9e5d 64be 0f56 64bd 6592 8a3e
000000a0: 1b1b 683e fd57 a93d a4c3 b33c d63e 403d
000000b0: 9088 863e af7f 4cbe 8f4d 3d3e 4278 8cbe
000000c0: fc25 c03d a029 cd3e d188 bbbe 7ac9 b73e
000000d0: 583f bc3e da90 a1bd fc33 863e 7c1d 8f3e
000000e0: a68a 86be 8ed9 7d3e 9c62 0ebe 84a4 47bc
000000f0: c6b1 a7be 834a 553e 875a 88be 3e77 ec3d
00000100: 0f97 9e3d c0cc 95bd 95da 053e d2e1 8b3d
00000110: 61a1 bd3c 9f31 a7bd 1075 cc3d 6b53 2a3e
00000120: 2da2 003d 1e7c 523e 12e4 34be 3f2a c6be
00000130: 8c7d 2f3c 76c4 563c bdbb 25bd 51df 14be
00000140: 421d 17bd b680 5ebd 7238 1bbe e8a4 66bd
00000150: e35e 8dbc bf75 0bbe aff9 fb3e cacc 113e
00000160: 3843 ab3d 42ea 863d a90e 653d eddc 8b3e
00000170: 4ba5 5eb8 1f0b 0c3d 6249 833e f062 fcbe
00000180: 8716 2fbe 99b6 88bd 3683 e6bd 12b9 aabd
00000190: 72ba a73d 70f0 ec3d 712b c0bd 53af 28be
000001a0: 8e44 34be dfca b03d f20c 84bc d253 9f3e
000001b0: 226d d0bc 0e2a 1fbd 17a2 c9be ca87 65be
000001c0: cda1 92be 68bf dcbd 4e6d 7abe a734 4b3d
000001d0: 0223 c53c 4adf 8a3e 885e 3b3e 193d 553e
000001e0: 094a 3c3d 169b b0bd 797f af3e 8b0e 3b3d
000001f0: 6d7a 4b3e 847a cdba 877f 84be 4ce5 4dbd
00000200: 0ce8 60bd 853b c13d aca9 2abe 8a2e 803d
00000210: 2a6d ac3d 908e 8a3e 2902 d13d 69f8 ce3d
00000220: 68ad ff3d 7f11 243e e1c8 c83e 121a cbbd
00000230: 843b 0cbd 7f0d 84be 9dd2 003e 5f9b 52be
00000240: b8c2 b33e 8aab 8f3e d934 7a3e 978a 393e
00000250: ddfc b9bd 2941 393e c3b5 0abf 9257 b63d
00000260: cbbf 96be 4267 30bc 5ade 49bd 0e69 88be
00000270: 00c9 56be 7d59 a83e 2526 b5bd 0b7a 723d
00000280: ff54 7abe 9433 e63d e8ff 5fbe 51f3 88be
00000290: 8ab9 af3e c622 f6be 80a1 6f3e ce7a 283e
000002a0: 0a9d 2d3e 511c 6abe e5b3 b03c 67c3 ad3d
000002b0: 538c 14bf 1bbd 223d b4d2 3e3e 28cb cdbe
000002c0: 0828 123e fe36 1c3e 527a c03e 55da b83d
000002d0: 042d d4be c111 f8bb 1494 07bf 8fde 6f3e
000002e0: 4f99 ff3e 4720 b03d 25d9 a9be 8979 c83c
000002f0: 2e33 513e d845 843e ddcf fabd 1a0d b63e
00000300: 90b2 053e ac49 ac3e 62b3 b53e 441f a33e
00000310: c6fb c43e 3ac6 a6be 11a3 d5bd 6dc8 b23d
00000320: bde3 f2bd 4f37 08bf f261 163e 368a fe3e
00000330: 653b 063d 1039 32be babb 81bd a382 9e3d
00000340: 54d7 d93b 2f2b 5cbe c013 e83e 9a4c 08be
00000350: ab29 d0bd 6389 023f 4341 a53e b2d4 85bd
00000360: 80bf 92bd adfe ab3d 47b6 17be 5877 20bd
00000370: 3263 043e d1a5 0c3d edd2 5cbe 18cc 67be
00000380: 0b85 e7bd 940e f93e 6c04 f13d 8f81 2cbe
00000390: 8794 743d 9e11 f5bc f085 173e 6140 663e
000003a0: a6a1 133e dadc f43c 90e8 7cbe f75c 9fbd
000003b0: a194 213d 05a0 c23c 25ba febc 6259 6b3d
000003c0: 81fb b33e 3bb7 dbbe 7d6b df3c b889 97be
000003d0: 8794 623c 4e19 0fbf 4a55 f4be 3495 ae3d
000003e0: 96ad 21bc 3b7e 503d e70a 773e f46e 69be
000003f0: 6f3d 16be 8840 6d3e 279f 69be 6360 0abe

classifier.model.16.bias f4 [128]
-0.14882056 -0.16068967 -0.23388605 -0.2159966 -0.31305808 -0.20107114 -0.27028087 -0.08208702
-0.15833859 -0.18328582 -0.18524598 -0.20535474 -0.20598121 -0.23586589 -0.15153782 -0.29041353
-0.17849046 -0.16674173 -0.19162308 -0.18914525 -0.15677032 -0.1558799 -0.20912309 -0.26944196
-0.16954903 -0.24062394 -0.2088348 -0.25129882 -0.12902936 -0.21788959 -0.2301825 -0.21615633
-0.18272905 -0.23571958 -0.16413806 -0.19241543 -0.19609897 -0.20613761 -0.26831284 -0.19530204
-0.16499749 -0.21241546 -0.25171238 -0.16688685 -0.19391574 -0.25103128 -0.21327667 -0.10068105
-0.16172564 -0.25287208 -0.17743388 -0.17802073 -0.24541652 -0.22075352 -0.21582443 -0.1659807
-0.20483166 -0.20227985 -0.1484429 -0.19302128 -0.23982154 -0.16936453 -0.19192414 -0.19547057
-0.20800437 -0.20185886 -0.18561195 -0.22534828 -0.1548497 -0.2755324 -0.1931205 -0.22960421
-0.20341152 -0.24626286 -0.21966603 -0.16114867 -0.19861515 -0.2479167 -0.21297759 -0.17655738
-0.14935616 -0.16950007 -0.19988754 -0.19534944 -0.23960492 -0.19724376 -0.14643383 -0.19382581
-0.2521217 -0.16486219 -0.16727269 -0.27238846 -0.20317318 -0.1988596 -0.17727917 -0.20596746
-0.19382086 -0.15500328 -0.22422643 -0.24197386 -0.18214157 -0.17795831 -0.14774442 -0.1884035
-0.12533645 -0.16570522 -0.23525481 -0.20257492 -0.18272166 -0.22446726 -0.22047432 -0.30814397
-0.24444751 -0.22769429 -0.15754944 -0.24714175 -0.28331172 -0.25873002 -0.26686478 -0.13103278
-0.15479079 -0.21333683 -0.23593861 -0.20448603 -0.24276039 -0.16151007 -0.24132761 -0.20856863
00000000: 6b64 18be d58b 24be d37f 6fbe 362e 5dbe
00000010: 2649 a0be 98e5 4dbe 4162 8abe 3d1d a8bd
00000020: 8323 22be 47af 3bbe 1fb1 3dbe 8348 52be
00000030: bdec 52be d486 71be bb2c 1bbe 15b1 94be
00000040: 34c6 36be 58be 2abe d738 44be 4baf 41be
00000050: 6688 20be fb9e 1fbe 5d24 56be 4cf4 89be
00000060: 439e 2dbe 1f66 76be cad8 55be 3daa 80be
00000070: 4620 04be 731e 5fbe f6b4 6bbe 1658 5dbe
00000080: 531d 3bbe 7960 71be cf13 28be 8d08 45be
00000090: 2bce 48be bd15 53be 4d60 89be 42fd 47be
000000a0: 1af5 28be 7083 59be 72e0 80be 63e4 2abe
000000b0: d991 46be 2c87 80be 3365 5abe de31 cebd
000000c0: 689b 25be 7378 81be 3ab1 35be 114b 36be
000000d0: 784e 7bbe 360d 62be 1401 5dbe d8f6 29be
000000e0: 64bf 51be 7322 4fbe 6a01 18be 5fa7 45be
000000f0: c793 75be e56d 2dbe c387 44be 7029 48be
00000100: 19ff 54be 17b4 4ebe 0f11 3ebe b3c1 66be
00000110: eb90 1ebe 9512 8dbe 61c1 45be 5e1d 6bbe
00000120: 1c4b 50be 552c 7cbe 22f0 60be 2804 25be
00000130: c561 4bbe e0dd 7dbe cc16 5abe 75cb 34be
00000140: d2f0 18be 6d91 2dbe 52af 4cbe af09 48be
00000150: fe5a 75be 45fa 49be c0f2 15be 467a 46be
00000160: 1816 81be a2d1 28be 8849 2bbe 8076 8bbe
00000170: a10c 50be daa1 4bbe ac88 35be 22e9 52be
00000180: fa78 46be 2eb9 1ebe 9d9b 65be ffc7 77be
00000190: 5283 3abe b43a 36be 504a 17be d9ec 40be
000001a0: 3358 00be a1ae 29be a3e6 70be cd6f 4fbe
000001b0: 631b 3bbe bfda 65be 05c4 61be 0cc5 9dbe
000001c0: 7350 7abe b128 69be a454 21be ba12 7dbe
000001d0: 3c0e 91be 4378 84be 80a2 88be 752d 06be
000001e0: 7a81 1ebe f874 5abe e499 71be c964 51be
000001f0: 2e96 78be e562 25be 961e 77be 0493 55be
